Deployed dataset google_chromium
Loading dataset ...
X_train.shape (9454, 50, 200, 1)
y_train.shape (9454, 781)
X_test.shape (1000, 50, 200, 1)
y_test.shape (1000, 781)
classes: 781
deepbug_model_cnn start..
input_shape: (50, 200, 1)
num_output: 781
model summary:
_________________________________________________________________
Layer (type)                 Output Shape              Param #   
=================================================================
input_1 (InputLayer)         (None, 50, 200, 1)        0         
_________________________________________________________________
zero_padding2d_1 (ZeroPaddin (None, 56, 206, 1)        0         
_________________________________________________________________
conv0 (Conv2D)               (None, 25, 100, 16)       800       
_________________________________________________________________
bn0 (BatchNormalization)     (None, 25, 100, 16)       400       
_________________________________________________________________
activation_1 (Activation)    (None, 25, 100, 16)       0         
_________________________________________________________________
max_pool (MaxPooling2D)      (None, 12, 25, 16)        0         
_________________________________________________________________
flatten_1 (Flatten)          (None, 4800)              0         
_________________________________________________________________
fc (Dense)                   (None, 781)               3749581   
=================================================================
Total params: 3,750,781
Trainable params: 3,750,581
Non-trainable params: 200
_________________________________________________________________
Train on 9454 samples, validate on 1000 samples
Epoch 1/500

2048/9454 [=====>........................] - ETA: 27s - loss: 8.4782 - acc: 9.7656e-04
4096/9454 [===========>..................] - ETA: 17s - loss: 8.1472 - acc: 7.3242e-04
…
9454/9454 [==============================] - 26s 3ms/step - loss: 5.2559 - acc: 0.0542 - val_loss: 6.4177 - val_acc: 0.0180
CV1, top1 - ... - top10 accuracy:  [1.7999999999999998, 3.1, 3.9, 4.6, 5.0, 5.7, 6.6000000000000005, 7.5, 8.1, 8.3]
X_train.shape (18885, 50, 200, 1)
y_train.shape (18885, 865)
X_test.shape (1000, 50, 200, 1)
y_test.shape (1000, 865)
classes: 865
deepbug_model_cnn start..
input_shape: (50, 200, 1)
num_output: 865
model summary:
_________________________________________________________________
Layer (type)                 Output Shape              Param #   
=================================================================
input_2 (InputLayer)         (None, 50, 200, 1)        0         
_________________________________________________________________
zero_padding2d_2 (ZeroPaddin (None, 56, 206, 1)        0         
_________________________________________________________________
conv0 (Conv2D)               (None, 25, 100, 16)       800       
_________________________________________________________________
bn0 (BatchNormalization)     (None, 25, 100, 16)       400       
_________________________________________________________________
activation_2 (Activation)    (None, 25, 100, 16)       0         
_________________________________________________________________
max_pool (MaxPooling2D)      (None, 12, 25, 16)        0         
_________________________________________________________________
flatten_2 (Flatten)          (None, 4800)              0         
_________________________________________________________________
fc (Dense)                   (None, 865)               4152865   
=================================================================
Total params: 4,154,065
Trainable params: 4,153,865
Non-trainable params: 200
_________________________________________________________________
Train on 18885 samples, validate on 1000 samples
Epoch 1/500

 2048/18885 [==>...........................] - ETA: 1:03 - loss: 8.8059 - acc: 9.7656e-04
 4096/18885 [=====>........................] - ETA: 47s - loss: 8.4447 - acc: 7.3242e-04 
…
