Deployed dataset google_chromium
Loading dataset ...
X_train.shape (9454, 50, 200, 1)
y_train.shape (9454, 781)
X_test.shape (1000, 50, 200, 1)
y_test.shape (1000, 781)
classes: 781
deepbug_model_cnn start..
input_shape: (50, 200, 1)
num_output: 781
model summary:
_________________________________________________________________
Layer (type)                 Output Shape              Param #   
=================================================================
input_1 (InputLayer)         (None, 50, 200, 1)        0         
_________________________________________________________________
zero_padding2d_1 (ZeroPaddin (None, 56, 206, 1)        0         
_________________________________________________________________
conv0 (Conv2D)               (None, 25, 100, 16)       800       
_________________________________________________________________
bn0 (BatchNormalization)     (None, 25, 100, 16)       400       
_________________________________________________________________
activation_1 (Activation)    (None, 25, 100, 16)       0         
_________________________________________________________________
average_pool0 (AveragePoolin (None, 12, 50, 16)        0         
_________________________________________________________________
flatten_1 (Flatten)          (None, 9600)              0         
_________________________________________________________________
fc (Dense)                   (None, 781)               7498381   
=================================================================
Total params: 7,499,581
Trainable params: 7,499,381
Non-trainable params: 200
_________________________________________________________________
Train on 9454 samples, validate on 1000 samples
Epoch 1/500

2048/9454 [=====>........................] - ETA: 33s - loss: 6.9103 - acc: 0.0020
4096/9454 [===========>..................] - ETA: 20s - loss: 6.7825 - acc: 0.0042
…
9454/9454 [==============================] - 29s 3ms/step - loss: 3.1334 - acc: 0.5293 - val_loss: 5.9771 - val_acc: 0.0400
CV1, top1 - ... - top10 accuracy:  [4.0, 6.3, 8.7, 9.700000000000001, 10.8, 11.899999999999999, 13.0, 13.5, 14.899999999999999, 15.8]
X_train.shape (18885, 50, 200, 1)
y_train.shape (18885, 865)
X_test.shape (1000, 50, 200, 1)
y_test.shape (1000, 865)
classes: 865
deepbug_model_cnn start..
input_shape: (50, 200, 1)
num_output: 865
model summary:
_________________________________________________________________
Layer (type)                 Output Shape              Param #   
=================================================================
input_2 (InputLayer)         (None, 50, 200, 1)        0         
_________________________________________________________________
zero_padding2d_2 (ZeroPaddin (None, 56, 206, 1)        0         
_________________________________________________________________
conv0 (Conv2D)               (None, 25, 100, 16)       800       
_________________________________________________________________
bn0 (BatchNormalization)     (None, 25, 100, 16)       400       
_________________________________________________________________
activation_2 (Activation)    (None, 25, 100, 16)       0         
_________________________________________________________________
average_pool0 (AveragePoolin (None, 12, 50, 16)        0         
_________________________________________________________________
flatten_2 (Flatten)          (None, 9600)              0         
_________________________________________________________________
fc (Dense)                   (None, 865)               8304865   
=================================================================
Total params: 8,306,065
Trainable params: 8,305,865
Non-trainable params: 200
_________________________________________________________________
Train on 18885 samples, validate on 1000 samples
Epoch 1/500

 2048/18885 [==>...........................] - ETA: 1:13 - loss: 7.0193 - acc: 4.8828e-04
 4096/18885 [=====>........................] - ETA: 56s - loss: 6.8790 - acc: 0.0027     
…
