Deployed dataset google_chromium
Loading dataset ...
X_train.shape (9454, 50, 200)
y_train.shape (9454, 781)
X_test.shape (9230, 50, 200)
y_test.shape (9230, 781)
classes: 781
After merge
X_train.shape (18684, 50, 200, 1)
y_train.shape (18684, 781)
validation_split = 0.1
deepbug_model_cnn start..
input_shape: (50, 200, 1)
num_output: 781
model summary:
_________________________________________________________________
Layer (type)                 Output Shape              Param #   
=================================================================
input_1 (InputLayer)         (None, 50, 200, 1)        0         
_________________________________________________________________
zero_padding2d_1 (ZeroPaddin (None, 56, 206, 1)        0         
_________________________________________________________________
bn0 (BatchNormalization)     (None, 56, 206, 1)        824       
_________________________________________________________________
conv0 (Conv2D)               (None, 52, 202, 16)       416       
_________________________________________________________________
activation_1 (Activation)    (None, 52, 202, 16)       0         
_________________________________________________________________
max_pool0 (MaxPooling2D)     (None, 26, 101, 16)       0         
_________________________________________________________________
conv1 (Conv2D)               (None, 24, 99, 32)        4640      
_________________________________________________________________
activation_2 (Activation)    (None, 24, 99, 32)        0         
_________________________________________________________________
max_pool1 (MaxPooling2D)     (None, 12, 49, 32)        0         
_________________________________________________________________
dropout_1 (Dropout)          (None, 12, 49, 32)        0         
_________________________________________________________________
conv2 (Conv2D)               (None, 10, 47, 64)        18496     
_________________________________________________________________
activation_3 (Activation)    (None, 10, 47, 64)        0         
_________________________________________________________________
max_pool2 (MaxPooling2D)     (None, 5, 23, 64)         0         
_________________________________________________________________
dropout_2 (Dropout)          (None, 5, 23, 64)         0         
_________________________________________________________________
flatten_1 (Flatten)          (None, 7360)              0         
_________________________________________________________________
fc0 (Dense)                  (None, 2000)              14722000  
_________________________________________________________________
softmax (Dense)              (None, 781)               1562781   
=================================================================
Total params: 16,309,157
Trainable params: 16,308,745
Non-trainable params: 412
_________________________________________________________________
Train on 16815 samples, validate on 1869 samples
Epoch 1/100

 2048/16815 [==>...........................] - ETA: 2:43 - loss: 6.9036 - acc: 0.0000e+00
 4096/16815 [======>.......................] - ETA: 2:18 - loss: 6.7790 - acc: 0.0076    
…
