…
38912/45000 [========================>.....] - ETA: 25s - loss: 0.8915 - acc: 0.7807
40960/45000 [==========================>...] - ETA: 17s - loss: 0.8919 - acc: 0.7803
43008/45000 [===========================>..] - ETA: 8s - loss: 0.8924 - acc: 0.7803 
45000/45000 [==============================] - 198s 4ms/step - loss: 0.8935 - acc: 0.7796 - val_loss: 1.2488 - val_acc: 0.6710
model summary:
_________________________________________________________________
Layer (type)                 Output Shape              Param #   
=================================================================
batch_normalization_1 (Batch (None, 32, 32, 3)         128       
_________________________________________________________________
conv2d_1 (Conv2D)            (None, 28, 28, 16)        1216      
_________________________________________________________________
activation_1 (Activation)    (None, 28, 28, 16)        0         
_________________________________________________________________
dropout_1 (Dropout)          (None, 28, 28, 16)        0         
_________________________________________________________________
batch_normalization_2 (Batch (None, 28, 28, 16)        112       
_________________________________________________________________
conv2d_2 (Conv2D)            (None, 26, 26, 32)        4640      
_________________________________________________________________
activation_2 (Activation)    (None, 26, 26, 32)        0         
_________________________________________________________________
dropout_2 (Dropout)          (None, 26, 26, 32)        0         
_________________________________________________________________
conv2d_3 (Conv2D)            (None, 24, 24, 64)        18496     
_________________________________________________________________
activation_3 (Activation)    (None, 24, 24, 64)        0         
_________________________________________________________________
dropout_3 (Dropout)          (None, 24, 24, 64)        0         
_________________________________________________________________
max_pooling2d_1 (MaxPooling2 (None, 12, 12, 64)        0         
_________________________________________________________________
flatten_1 (Flatten)          (None, 9216)              0         
_________________________________________________________________
dense_1 (Dense)              (None, 1000)              9217000   
_________________________________________________________________
dropout_4 (Dropout)          (None, 1000)              0         
_________________________________________________________________
dense_2 (Dense)              (None, 10)                10010     
_________________________________________________________________
activation_4 (Activation)    (None, 10)                0         
=================================================================
Total params: 9,251,602
Trainable params: 9,251,482
Non-trainable params: 120
_________________________________________________________________
[[4.36600676e-04 1.96186083e-04 3.60564864e-03 ... 4.07275744e-03
  1.87888800e-03 3.06480122e-03]
 [1.00207016e-01 9.05127525e-02 1.24722592e-05 ... 1.27609763e-08
  7.87522793e-01 2.17431840e-02]
…
