…
38912/45000 [========================>.....] - ETA: 7s - loss: 1.5176 - acc: 0.4452 
40960/45000 [==========================>...] - ETA: 5s - loss: 1.5179 - acc: 0.4451
43008/45000 [===========================>..] - ETA: 2s - loss: 1.5165 - acc: 0.4453
45000/45000 [==============================] - 61s 1ms/step - loss: 1.5160 - acc: 0.4454 - val_loss: 1.4290 - val_acc: 0.5006
model summary:
_________________________________________________________________
Layer (type)                 Output Shape              Param #   
=================================================================
input_1 (InputLayer)         (None, 32, 32, 3)         0         
_________________________________________________________________
zero_padding2d_1 (ZeroPaddin (None, 38, 38, 3)         0         
_________________________________________________________________
bn0 (BatchNormalization)     (None, 38, 38, 3)         152       
_________________________________________________________________
conv0 (Conv2D)               (None, 34, 34, 16)        1216      
_________________________________________________________________
activation_1 (Activation)    (None, 34, 34, 16)        0         
_________________________________________________________________
max_pool0 (MaxPooling2D)     (None, 17, 17, 16)        0         
_________________________________________________________________
conv1 (Conv2D)               (None, 15, 15, 32)        4640      
_________________________________________________________________
activation_2 (Activation)    (None, 15, 15, 32)        0         
_________________________________________________________________
max_pool1 (MaxPooling2D)     (None, 7, 7, 32)          0         
_________________________________________________________________
dropout_1 (Dropout)          (None, 7, 7, 32)          0         
_________________________________________________________________
conv2 (Conv2D)               (None, 5, 5, 64)          18496     
_________________________________________________________________
activation_3 (Activation)    (None, 5, 5, 64)          0         
_________________________________________________________________
max_pool2 (MaxPooling2D)     (None, 2, 2, 64)          0         
_________________________________________________________________
dropout_2 (Dropout)          (None, 2, 2, 64)          0         
_________________________________________________________________
flatten_1 (Flatten)          (None, 256)               0         
_________________________________________________________________
fc (Dense)                   (None, 10)                2570      
=================================================================
Total params: 27,074
Trainable params: 26,998
Non-trainable params: 76
_________________________________________________________________
[[0.02750082 0.03473489 0.1219895  ... 0.07004914 0.01542595 0.04831097]
 [0.12168837 0.28625256 0.00361421 ... 0.00066308 0.48030916 0.10508768]
 [0.14593917 0.3058243  0.03704892 ... 0.02228298 0.28228924 0.15471578]
…
