__________________________________________________________________________________________________
Layer (type)                    Output Shape         Param #     Connected to                     
==================================================================================================
input_1 (InputLayer)            (None, 50, 200)      0                                            
__________________________________________________________________________________________________
lstm_1 (LSTM)                   (None, 50, 512)      1460224     input_1[0][0]                    
__________________________________________________________________________________________________
lstm_2 (LSTM)                   (None, 50, 512)      1460224     input_1[0][0]                    
__________________________________________________________________________________________________
dense_1 (Dense)                 (None, 50, 1)        513         lstm_1[0][0]                     
__________________________________________________________________________________________________
dense_2 (Dense)                 (None, 50, 1)        513         lstm_2[0][0]                     
__________________________________________________________________________________________________
flatten_1 (Flatten)             (None, 50)           0           dense_1[0][0]                    
__________________________________________________________________________________________________
flatten_2 (Flatten)             (None, 50)           0           dense_2[0][0]                    
__________________________________________________________________________________________________
activation_1 (Activation)       (None, 50)           0           flatten_1[0][0]                  
__________________________________________________________________________________________________
activation_2 (Activation)       (None, 50)           0           flatten_2[0][0]                  
__________________________________________________________________________________________________
repeat_vector_1 (RepeatVector)  (None, 512, 50)      0           activation_1[0][0]               
__________________________________________________________________________________________________
repeat_vector_2 (RepeatVector)  (None, 512, 50)      0           activation_2[0][0]               
__________________________________________________________________________________________________
permute_1 (Permute)             (None, 50, 512)      0           repeat_vector_1[0][0]            
__________________________________________________________________________________________________
permute_2 (Permute)             (None, 50, 512)      0           repeat_vector_2[0][0]            
__________________________________________________________________________________________________
multiply_1 (Multiply)           (None, 50, 512)      0           lstm_1[0][0]                     
                                                                 permute_1[0][0]                  
__________________________________________________________________________________________________
multiply_2 (Multiply)           (None, 50, 512)      0           lstm_2[0][0]                     
                                                                 permute_2[0][0]                  
__________________________________________________________________________________________________
lambda_2 (Lambda)               (None, 512)          0           lstm_1[0][0]                     
__________________________________________________________________________________________________
lambda_1 (Lambda)               (None, 512)          0           multiply_1[0][0]                 
__________________________________________________________________________________________________
lambda_4 (Lambda)               (None, 512)          0           lstm_2[0][0]                     
__________________________________________________________________________________________________
lambda_3 (Lambda)               (None, 512)          0           multiply_2[0][0]                 
__________________________________________________________________________________________________
concatenate_1 (Concatenate)     (None, 1024)         0           lambda_2[0][0]                   
                                                                 lambda_1[0][0]                   
__________________________________________________________________________________________________
concatenate_2 (Concatenate)     (None, 1024)         0           lambda_4[0][0]                   
                                                                 lambda_3[0][0]                   
__________________________________________________________________________________________________
batch_normalization_1 (BatchNor (None, 1024)         4096        concatenate_1[0][0]              
__________________________________________________________________________________________________
batch_normalization_2 (BatchNor (None, 1024)         4096        concatenate_2[0][0]              
__________________________________________________________________________________________________
concatenate_3 (Concatenate)     (None, 2048)         0           batch_normalization_1[0][0]      
                                                                 batch_normalization_2[0][0]      
__________________________________________________________________________________________________
dense_3 (Dense)                 (None, 1000)         2049000     concatenate_3[0][0]              
__________________________________________________________________________________________________
dropout_1 (Dropout)             (None, 1000)         0           dense_3[0][0]                    
__________________________________________________________________________________________________
dense_4 (Dense)                 (None, 19)           19019       dropout_1[0][0]                  
==================================================================================================
Total params: 4,997,685
Trainable params: 4,993,589
Non-trainable params: 4,096
__________________________________________________________________________________________________
Train on 863 samples, validate on 959 samples
Epoch 1/500

512/863 [================>.............] - ETA: 6s - loss: 3.7725 - acc: 0.0410
…
