Load Keras cifar10
preprocess dataset
x_train.shape (50000, 32, 32, 3)
y_train.shape (50000, 10)
x_test.shape (10000, 32, 32, 3)
y_test.shape (10000, 10)
deepbug_model_cnn start..
input_shape: (32, 32, 3)
num_output: 10
model summary:
_________________________________________________________________
Layer (type)                 Output Shape              Param #   
=================================================================
input_1 (InputLayer)         (None, 32, 32, 3)         0         
_________________________________________________________________
zero_padding2d_1 (ZeroPaddin (None, 38, 38, 3)         0         
_________________________________________________________________
bn0 (BatchNormalization)     (None, 38, 38, 3)         152       
_________________________________________________________________
conv0 (Conv2D)               (None, 35, 35, 16)        784       
_________________________________________________________________
activation_1 (Activation)    (None, 35, 35, 16)        0         
_________________________________________________________________
max_pool0 (MaxPooling2D)     (None, 17, 17, 16)        0         
_________________________________________________________________
dropout_1 (Dropout)          (None, 17, 17, 16)        0         
_________________________________________________________________
conv1 (Conv2D)               (None, 15, 15, 32)        4640      
_________________________________________________________________
activation_2 (Activation)    (None, 15, 15, 32)        0         
_________________________________________________________________
max_pool1 (MaxPooling2D)     (None, 7, 7, 32)          0         
_________________________________________________________________
dropout_2 (Dropout)          (None, 7, 7, 32)          0         
_________________________________________________________________
conv2 (Conv2D)               (None, 5, 5, 64)          18496     
_________________________________________________________________
activation_3 (Activation)    (None, 5, 5, 64)          0         
_________________________________________________________________
dropout_3 (Dropout)          (None, 5, 5, 64)          0         
_________________________________________________________________
conv3 (Conv2D)               (None, 3, 3, 128)         73856     
_________________________________________________________________
activation_4 (Activation)    (None, 3, 3, 128)         0         
_________________________________________________________________
dropout_4 (Dropout)          (None, 3, 3, 128)         0         
_________________________________________________________________
flatten_1 (Flatten)          (None, 1152)              0         
_________________________________________________________________
fc0 (Dense)                  (None, 100)               115300    
_________________________________________________________________
softmax (Dense)              (None, 10)                1010      
=================================================================
Total params: 214,238
Trainable params: 214,162
Non-trainable params: 76
_________________________________________________________________
Train on 45000 samples, validate on 5000 samples
Epoch 1/100

 2048/45000 [>.............................] - ETA: 2:16 - loss: 2.3255 - acc: 0.1030
 4096/45000 [=>............................] - ETA: 1:55 - loss: 2.3225 - acc: 0.1050
…
